saved_models/float_model.pt (torch, 123668 bytes, 4 tensors)

weight f4 [30, 768]
0.008582913 -0.14075051 -0.010139168 -0.03199094 0.032635532 -0.13818556 -0.030066311 -0.044454936
-0.14649975 -0.055764508 0.003915888 0.025825331 0.057456125 0.10959791 -0.009146278 -0.040953714
-0.13510469 -0.032443557 -0.058715407 -0.071809694 0.01741509 -0.12547834 -0.023602206 0.0036217023
0.0742382 0.03716801 -0.114271335 0.12509637 0.00017109474 -0.041327957 0.07958306 -0.05929112
-0.09548601 0.0013871416 0.07426263 0.052682236 0.011863714 0.008105197 0.04933068 -0.045317035
0.08888973 0.07635268 -0.04192774 0.05802227 -0.07012996 -0.24498244 -0.0947763 -0.018353721
0.03439491 0.08534768 0.0028515342 -0.1347306 -0.023753153 0.08840321 0.033679638 -0.027517812
0.11687158 -0.012852899 0.13842292 -0.05390071 0.01205523 -0.22477092 -0.13030954 -0.14659514
-0.030926304 -0.04323621 -0.08154814 -0.13305382 0.01584982 0.18902232 0.033380166 0.09404976
-0.01801525 -0.10534482 -0.043743003 -0.23769894 -0.034135614 0.03210668 0.099215694 0.12810986
-0.008642734 0.058845915 0.00494386 0.041776676 0.08836201 -0.04209116 0.009566962 -0.10100727
0.053779863 0.06584903 -0.0036279594 -0.044686567 0.15194556 0.052659836 -0.06738578 0.043879006
-0.038663108 0.01867192 -0.08040345 -0.08463571 0.03950045 0.10352402 0.027725996 0.08829926
0.15857369 0.042968255 0.073042475 0.10765101 0.0008027809 -0.034700684 0.020078752 0.045566082
-0.16084588 0.013147249 0.030452834 0.037196986 0.04042463 0.046408694 -0.035660684 0.08852365
0.061707564 -0.045747556 -0.007492894 0.024770584 0.18783455 0.035504017 -0.14051159 0.0654349
0.09736255 -0.05366712 -0.04678702 -0.045875527 -0.06786431 -0.12846783 0.10562746 0.084349565
0.034830026 0.10980035 -0.13810761 -0.106191605 0.056748502 -0.058135085 0.03680223 0.012908882
-0.07008296 -0.14834335 0.11015453 0.09442896 -0.06503777 0.031547844 -0.11061975 -0.12445694
-0.015329773 -0.07515688 0.16874605 -0.00066631887 0.034474272 0.09386792 0.03581506 -0.024483446
0.0361296 -0.045513086 -0.012874503 0.0065765246 0.13655117 -0.15044491 0.010341816 -0.14597987
-0.08919379 -0.08132675 -0.23867205 0.14823571 -0.034547966 -0.03238033 -0.04755253 -0.19769488
0.094400495 -0.05028959 -0.023902332 0.18764663 0.11944645 -0.13589875 0.088133775 -0.06261914
-0.02806608 0.029177936 -0.06636526 0.18925646 -0.032438096 -0.13554955 0.021489536 -0.0707229
-0.008887237 0.1352277 0.15068989 -0.0971288 0.047396686 0.03464337 0.020587498 0.094621964
-0.07112678 -0.10899751 -0.004405031 -0.053291578 -0.17440939 0.16591036 -0.09715903 -0.093260296
-0.074817054 0.17651041 0.0023914624 0.039595578 0.118910246 -0.015062274 0.027928017 0.018584067
0.07059876 -0.11766601 -0.1077923 -0.026575498 -0.087148264 -0.04671359 -0.09409656 -0.1503787
-0.011157108 0.05078448 0.014616545 -0.0015802687 0.058297392 0.018836897 -0.10305966 0.0034237865
-0.0064496854 0.0013489281 0.07202777 0.10983481 0.021248369 -0.08600056 0.15983452 0.07222116
0.16496313 0.04632012 -0.14185932 -0.0058321245 0.06018393 0.15322398 -0.12485299 -0.049101233
-0.24798538 0.018977918 0.035892244 0.13957952 0.14713965 0.052029308 0.00975422 -0.17403388
00000000: 599f 0c3c e720 10be c11e 26bc ef08 03bd
00000010: d6ac 053d 8480 0dbe a04d f6bc 6116 36bd
00000020: 0804 16be 5369 64bd d950 803b a58f d33c
00000030: 1d57 6b3d de74 e03d 45da 15bc 15bf 27bd
00000040: e258 0abe 89e3 04bd 917f 70bd f610 93bd
00000050: 17aa 8e3c 657d 00be 6a59 c1bc 155a 6d3b
00000060: 330a 983d 7c3d 183d 1707 eabd 4319 003e
00000070: e567 3339 8147 29bd 72fc a23d 3fdb 72bd
00000080: 2b8e c3bd c0d0 b53a 0117 983d 54c9 573d
00000090: 0660 423c a9cb 043c f80e 4a3d 5b9e 39bd
000000a0: d20b b63d cb5e 9c3d 6cbc 2bbd c3a8 6d3d
000000b0: 4ca0 8fbd addc 7abe 141a c2bd 8b5a 96bc
000000c0: ade1 0c3d c4ca ae3d cee0 3a3b d2f6 09be
000000d0: f995 c2bc be0c b53d a9f3 093d 096d e1bc
000000e0: 5e5a ef3d f794 52bc bdbe 0d3e fec6 5cbd
000000f0: 4d83 453c 592a 66be dd6f 05be 091d 16be
00000100: 2959 fdbc 7418 31bd b602 a7bd 433f 08be
00000110: 7bd7 813c 118f 413e a4b9 083d 299d c03d
00000120: b894 93bc 06bf d7bd dd2b 33bd 5a67 73be
00000130: c9d1 0bbd 4b82 033d 9931 cb3d 3b2f 033e
00000140: 419a 0dbc 6a08 713d 1b00 a23b 051e 2b3d
00000150: 24f7 b43d c867 2cbd bfbe 1c3c e6dc cebd
00000160: 4648 5c3d dbdb 863d 0fc3 6dbb 4309 37bd
00000170: 9e97 1b3e d7b1 573d 8e01 8abd 79ba 333d
00000180: 355d 1ebd dbf5 983c 90aa a4bd 7d55 adbd
00000190: 39cb 213d 6704 d43d a121 e33c 3ed6 b43d
000001a0: 2461 223e 7bff 2f3d 4b97 953d 2278 dc3d
000001b0: b771 523a 4e22 0ebd 327c a43c 80a3 3a3d
000001c0: c8b4 24be 8f67 573c 3978 f93c de5b 183d
000001d0: 4c94 253d 0b17 3e3d f010 12bd e34b b53d
000001e0: 12c1 7c3d ca61 3bbd f386 f5bb aeeb ca3c
000001f0: b357 403e a96c 113d 45e2 0fbe bc02 863d
00000200: 0466 c73d 0ed2 5bbd bfa3 3fbd fae7 3bbd
00000210: 72fc 8abd 128d 03be 3653 d83d 77bf ac3d
00000220: eea9 0e3d 02df e03d 156c 0dbe fc7a d9bd
00000230: 1e71 683d 0e1f 6ebd efbd 163d c77f 533c
00000240: a887 8fbd 52e7 17be b398 e13d f863 c13d
00000250: 8632 85bd 5038 013d 9c8c e2bd 48e3 febd
00000260: ba29 7bbc daeb 99bd c4cb 2c3e e7ab 2eba
00000270: e534 0d3d d33d c03d d0b2 123d 8291 c8bc
00000280: a2fc 133d ee6b 3abd 94ef 52bc e37f d73b
00000290: 12d4 0b3e 3b0e 1abe b870 293c bf7b 15be
000002a0: 3cab b6bd a48e a6bd 7266 74be 1acb 173e
000002b0: 2b82 0dbd 3da1 04bd 71c6 42bd 8770 4abe
000002c0: 0c55 c13d 75fc 4dbd d3ce c3bc 7026 403e
000002d0: 57a0 f43d 0b29 0bbe 7b7f b43d 773e 80bd
000002e0: d6ea e5bc 9106 ef3c 82ea 87bd 72cc 413e
000002f0: cfdd 04bd 80cd 0abe d30a b03c 2bd7 90bd
00000300: c69b 11bc 2179 0a3e 734e 1a3e 77eb c6bd
00000310: 0723 423d 35e6 0d3d 1da7 a83c 29c9 c13d
00000320: ebaa 91bd 163a dfbd 1458 90bb 4548 5abd
00000330: 6098 32be 68e4 293e 50fb c6bd 41ff bebd
00000340: af39 99bd 25bf 343e 15ba 1c3b f92e 223d
00000350: 3787 f33d c2c7 76bc 4cc9 e43c 9d3d 983c
00000360: 1596 903d e1fa f0bd 36c2 dcbd dcb4 d9bc
00000370: ca7a b2bd c056 3fbd b2b5 c0bd e0fc 19be
00000380: 4dcc 36bc 6303 503d 3c7a 6f3c 0521 cfba
00000390: 3fc9 6e3d d64f 9a3c f110 d3bd 9b61 603b
000003a0: e257 d3bb 84ce b03a 4c83 933d 13f1 e03d
000003b0: 0f11 ae3c 1021 b0bd a9ab 233e b0e8 933d
000003c0: 18ec 283e 2bba 3d3d 9243 11be 681b bfbb
000003d0: 6d83 763d bfe6 1c3e edb2 ffbd 601e 49bd
000003e0: e1ef 7dbe 9477 9b3c bf03 133d efed 0e3e
000003f0: c7ab 163e af1c 553d 2ad0 1f3c f035 32be

bias f4 [30]
0.03341137 0.10195996 0.05072287 0.20510419 0.108674474 0.07245638 0.014366206 0.05123071
0.07353271 0.09404523 0.06642329 0.11052514 0.095193364 0.042857546 -0.06740574 0.008133968
0.009354792 0.13013832 0.060526185 0.2788059 -0.00024153345 0.05868729 0.025316397 0.0038757846
-0.020482097 0.043287843 0.023510031 0.1292459 -0.05825102 0.23107724
00000000: 5cda 083d 62d0 d03d c9c2 4f3d d506 523e
00000010: b990 de3d 0364 943d 3c60 6b3c 4bd7 513d
00000020: 5198 963d c99a c03d ef08 883d 015b e23d
00000030: bdf4 c23d 658b 2f3d 050c 8abd 5644 053c
00000040: d744 193c fb42 053e 4eea 773d a6bf 8e3e
00000050: 2444 7db9 1562 703d 5564 cf3c e000 7e3b
00000060: 12ca a7bc 984e 313d 1c98 c03c 0a59 043e
00000070: 9f98 6ebd 839f 6c3e

weight f4 [2, 30]
-0.77146333 0.4619748 -0.29968518 0.5952518 0.6180164 -0.30432516 -0.82643706 -0.5015875
0.40176368 0.3584748 0.5557582 0.4800335 0.52329344 -0.49385798 -0.58936036 -0.47816625
-0.52037007 0.42185435 0.73597413 0.36552024 -0.70141584 -0.007247839 -0.20492995 -0.7001886
-0.88394505 -0.63496894 -0.5897953 0.6454849 -0.67686826 0.51236033 0.47884318 -0.2420213
0.7416972 0.2655444 0.029929895 0.5228825 0.33538726 0.5167242 -0.5826295 -0.6000154
-0.45499772 -0.2558265 -0.31900868 0.43400276 -0.24380304 0.77041197 0.38861436 -0.27972096
-0.38895953 0.2817713 0.40546933 0.60056007 0.65858614 0.3233107 0.3181794 0.3837811
0.6525457 0.13232486 -0.013859522 0.35425127
00000000: 9f7e 45bf f687 ec3e 5670 99be 6c62 183f
00000010: 5336 1e3f 82d0 9bbe 6191 53bf 0a68 00bf
00000020: f8b3 cd3e 028a b73e 2b46 0e3f f3c6 f53e
00000030: 8ff6 053f f4da fcbe 52e0 16bf 35d2 f4be
00000040: f936 05bf 4bfd d73e cd68 3c3f 7825 bb3e
00000050: fd8f 33bf 487f edbb 28d9 51be 8f3f 33bf
00000060: 394a 62bf 538d 22bf d3fc 16bf 803e 253f
00000070: 3d47 2dbf 0c2a 033f ef2a f53e 6fd4 77be
00000080: dedf 3d3f 70f5 873e 8a2f f53c a1db 053f
00000090: e1b7 ab3e 0a48 043f 3527 15bf 9c9a 19bf
000000a0: 76f5 e8be b1fb 82be 1b55 a3be 9c35 de3e
000000b0: 81a7 79be b839 453f 76f8 c63e 9637 8fbe
000000c0: b425 c7be 5444 903e ad99 cf3e 4ebe 193f
000000d0: 1a99 283f fb88 a53e 69e8 a23e f57e c43e
000000e0: 3c0d 273f 2b80 073e 0c13 63bc 6c60 b53e

bias f4 [2]
0.20751467 0.009327746
00000000: ba7e 543e 67d3 183c
