saved_models/full_data_model.pt (torch, 100896 bytes, 4 tensors)

weight f4 [30, 768]
000000 21 8f 1e 3c 37 2b 42 bc cc 3f c8 3c 4e 9f 4a 3d
       0.009677679 -0.0118511235 0.024444483 0.04946833
000010 49 02 d4 3b b7 93 29 bb 48 38 38 3d 95 8d 92 3d
       0.006469999 -0.0025875398 0.04497555 0.07155911
000020 b8 8a e8 bc 11 cc a0 3d 7d 82 d9 bc a5 e7 99 3d
       -0.028386459 0.078514226 -0.02655148 0.07514886
000030 07 b6 01 3d 11 03 fa bc 25 68 87 3d 03 d4 61 3d
       0.031667735 -0.03051904 0.06611661 0.05513383
000040 8b 11 2c bc fb 7a 4d bd 19 49 0f 3a c3 5a 81 3c
       -0.010502229 -0.05016611 0.00054659095 0.015790349
000050 8e 17 39 bd 95 be a7 3d 96 48 83 bd 9b 14 36 bc
       -0.04518848 0.081906475 -0.06410329 -0.011113311
000060 e5 10 82 bc 00 ea 2f 3d 69 71 8b 3d f6 4a 89 bd
       -0.015877197 0.04294777 0.06808741 -0.06703751
000070 c7 a3 ce 3a d8 b1 63 3d b5 b1 16 bd 19 3d 69 bd
       0.0015765362 0.055589527 -0.03679057 -0.056943033
000080 1e 0b 9a 3c dc f0 c6 bc c0 de 2d bd ba 91 70 bd
       0.01880413 -0.024284773 -0.04244876 -0.058732726
000090 39 cc 0b bd 93 86 d7 bc 79 fa 12 bd 55 87 32 bd
       -0.03413031 -0.026309287 -0.0358834 -0.043586094
0000a0 6c 7d 8c bd 4f 56 4a 3d eb c0 45 bd 68 2b c0 bc
       -0.0685986 0.049398717 -0.048279684 -0.023458198
0000b0 2b f9 38 3d 92 6e ab 3d 66 0a 9c bc 3c 49 82 bd
       0.0451595 0.08370699 -0.019047927 -0.063616246
0000c0 84 05 a4 bd 73 51 a6 3d e0 4b 57 ba bd 6a b1 3c
       -0.080088645 0.08121004 -0.00082129054 0.021657342
0000d0 a6 d2 93 bd 9c 78 1f 3d 41 49 ab bc 15 b3 19 3c
       -0.072179124 0.03893338 -0.020908954 0.009381075
0000e0 b2 cd 33 bd b9 f6 b7 3c 76 3a 42 bd 9e 9c f5 3c
       -0.04389734 0.022456514 -0.047419034 0.029981907
0000f0 79 87 d4 bc 74 8b 60 bd b6 5b 79 bd 06 d1 af 3d
       -0.025943505 -0.054820493 -0.060878478 0.0858479
000100 a4 37 78 bc 21 1f 4f bd 35 a2 c6 bb 39 61 36 3d
       -0.0151499845 -0.050566796 -0.006061817 0.044526313
000110 c3 23 f8 bb 6c bb aa bc 60 70 60 bc 04 5c 44 bc
       -0.0075726225 -0.020841323 -0.013698667 -0.011984829
000120 6a b4 1d 3c f0 42 86 3d c5 b0 89 bd 84 fa ae 3c
       0.009625534 0.06555736 -0.06723169 0.02135969
000130 76 eb a9 bd a3 39 c1 bc bb 3e e8 bc a5 04 ba 3c
       -0.08296864 -0.023587054 -0.028350225 0.022707293
000140 cd f9 8a 3d bb e7 84 bc b0 35 10 3d 70 9d c9 3c
       0.06785927 -0.016223779 0.03520745 0.024611205
000150 91 79 6a 3d bc 56 45 bd da df 8f bd 2e 4a 96 3d
       0.05724484 -0.04817842 -0.07025118 0.073383674
000160 ac 74 3d bd 4d 01 82 bc 9e a8 7c 3d 9d 9a 25 bd
       -0.046253845 -0.01586976 0.061684243 -0.040430654
000170 c5 6e 82 bd f4 c5 9f 3d f4 14 99 3d 0b f3 3a bc
       -0.06368784 0.078014284 0.074746996 -0.011410485
000180 73 1c 1c bc cf 5d 39 bd 43 e1 28 3d 96 4b 49 bd
       -0.009528267 -0.04525548 0.04123045 -0.04914435
000190 92 b9 fa 3c b4 fa 9c 3d 06 70 a2 3d c2 55 b0 bd
       0.030606065 0.07665005 0.07931523 -0.08610107
0001a0 d6 4e 90 3d 1d 53 97 3d b2 6d 7d bd 7c 3e 76 3d
       0.07046287 0.073888995 -0.06187219 0.060118183
0001b0 20 94 a2 3c 36 15 1e 3a 38 ae 1f bd f7 ca 83 bc
       0.019846022 0.00060303824 -0.038984507 -0.016087992
0001c0 ac d5 a9 bb d8 17 9a bd 47 19 94 3c b0 38 1a bd
       -0.0051829424 -0.07524079 0.01807846 -0.037651718
0001d0 07 a7 47 3d ae 82 15 3d 42 3c 85 bd 26 83 16 3d
       0.048743274 0.03650158 -0.06505634 0.036746167
0001e0 04 0a 07 3d 7e 30 0a 3c 45 e9 87 3d 8e 84 8e bd
       0.032968536 0.008434413 0.066362895 -0.069588766
0001f0 fb 72 c0 3c 24 86 b4 3d d4 fb a3 bd ad 28 8a bc
       0.023492327 0.08814648 -0.08007017 -0.016865099
000200 ab 30 ad 3c 8f a9 7f bc aa 85 2d 3d 65 49 42 bd
       0.02114137 -0.015604391 0.0423638 -0.047433276
000210 7c ea 0d bd 97 d4 2f bd 60 c4 30 3d dd 71 2d bd
       -0.03464745 -0.04292735 0.043156028 -0.042344917
000220 50 e1 47 bd 35 2e c4 bc 42 47 2e bd 3e 06 7b 3d
       -0.04879886 -0.023947814 -0.042548425 0.06128525
000230 17 f7 98 3d 18 33 b2 3c 9a 71 61 3d d5 c2 93 3c
       0.07469004 0.021752879 0.05503998 0.01803724
000240 cc 4f 15 bd 1a fb 35 bd 2f 71 71 3d a6 db 3f bd
       -0.036453053 -0.044428922 0.05894583 -0.046840332
000250 7e 68 94 3c 92 da 33 ba a4 6e a3 bc ef d7 8e 3d
       0.018116232 -0.00068608776 -0.019950218 0.0697478
000260 70 b1 6e 3d 6f df a6 bc 05 7d 91 3c 22 98 ea bc
       0.058274686 -0.020370213 0.01775981 -0.028636996
000270 14 25 8b 3d 42 ca 83 3d 57 b2 05 3d de 5c 6b bd
       0.067941815 0.06435062 0.03264078 -0.057461612
000280 d3 42 a0 3c 65 5c 79 3b fa c7 0e 3d ea ac 0a 3d
       0.019563114 0.0038049456 0.03485868 0.03385631
000290 48 c2 35 3c 12 2c 6f 3d d5 f1 da bc 67 6f 56 bd
       0.011093684 0.058391638 -0.026726643 -0.052352335
0002a0 41 30 95 3c cf 22 cd bc 4b 42 45 bd a8 43 79 bd
       0.018211486 -0.025041012 -0.048158925 -0.060855538
0002b0 f3 c5 6c 3d c1 6e 82 3d df bb b8 3d 19 73 8d 3d
       0.057805967 0.06368781 0.090202086 0.06906719
0002c0 93 37 a5 3c 0f af 7b bd b8 e5 36 3d 07 22 79 bd
       0.020168101 -0.061446246 0.04465267 -0.060823467
0002d0 31 1d 5c 3d c7 6e 4c bc ae 81 5c bb 30 59 38 3d
       0.053738777 -0.012477583 -0.003364663 0.04500693
0002e0 e1 7b 8b 3d 62 21 40 3c af 59 b7 3c 59 c3 c2 3c
       0.068107374 0.011726709 0.022381632 0.02377479
0002f0 89 0d 51 bd 3f e9 a4 bd b9 c4 4e 3d 1b 7b b3 3c
       -0.0510383 -0.08052301 0.050480578 0.021909287
000300 92 95 86 bd 25 8a 06 bc a1 c8 9a 3c 65 00 a3 bd
       -0.06571497 -0.008211647 0.018894495 -0.079590596
000310 0a af 9c 3d cc 1d ad bd 28 02 b3 bc 3a 6d a1 bb
       0.076505736 -0.08452949 -0.021851614 -0.004926351
000320 2a 9a 9d 3c fb 28 8f 3c 65 bb 29 3d 90 b2 ed bc
       0.01923855 0.017475596 0.04143848 -0.02901581
000330 2a e7 80 bc 76 6d 0e bd 5e db 91 bd f9 45 9d bd
       -0.015735228 -0.03477236 -0.07121919 -0.07679362
000340 59 01 ac bc 8c 37 ff bc e0 6a bb 3b 37 a4 68 3d
       -0.020996736 -0.031154417 0.0057195276 0.056797232
000350 50 07 8e 3d 21 ed 55 bd f0 c4 09 bc 89 cc e5 bc
       0.069349885 -0.052228097 -0.00840877 -0.028051632
000360 ee 3f 9f bd db 77 84 bd 94 41 8c 3d 15 e4 7d bd
       -0.077758655 -0.06468173 0.068484455 -0.061985094
000370 91 30 19 3d b6 2d 3d 3c 6a 66 ac bd bc 8c 59 bc
       0.037399832 0.011546543 -0.084179714 -0.013278183
000380 81 1c 39 3d 98 13 7d bd af 17 67 3d 43 da 0d bd
       0.0451932 -0.061786264 0.05641907 -0.03463198
000390 1f ad 4e 3b 93 80 c1 bc f8 63 5f bc 1a 73 74 3d
       0.0031536294 -0.02362088 -0.013634674 0.059680082
0003a0 dd 92 9a 3d 8b 3c 88 bb 20 d7 b3 bd 4c 89 32 bd
       0.07547543 -0.004157608 -0.08781266 -0.043587968
0003b0 ca 8a 72 bd 75 e6 49 bd b1 2b 11 bd 01 5a 82 3d
       -0.05921439 -0.049292047 -0.035442058 0.06364823
0003c0 ad ac 2c bd 80 b7 65 3d df e1 7f bd 82 a3 37 bd
       -0.042156864 0.056083202 -0.062471267 -0.044833668
0003d0 fc 38 42 bd 64 a2 37 3a c8 d1 28 3c 65 14 d5 bb
       -0.047417626 0.0007005094 0.010303922 -0.0065026754
0003e0 07 29 cb bc 96 7b 8e 3d 42 9b 01 3d 53 4e 61 bc
       -0.024799837 0.06957166 0.031642206 -0.013751584
0003f0 2e 24 c8 bc 3b 04 2f bd 99 8f 63 3d b8 bb 0c bd
       -0.024431314 -0.042728644 0.055556867 -0.03435871

bias f4 [30]
000000 b5 3d ff 3c 41 f4 9b bc 3e 1f 15 3c 2e 6a 63 bc
       0.031157354 -0.019037368 0.009101687 -0.013880296
000010 29 70 38 3d 72 1e 6c 3c 13 17 2a bd f6 70 9c 3b
       0.04502884 0.014411556 -0.04152591 0.004774208
000020 03 60 13 3d ab be 22 bd a0 35 96 bb 4d 52 ee bc
       0.035980236 -0.039732616 -0.0045840293 -0.029091978
000030 fb ef 36 3d 75 fc 4e bb 7f fb be bc 5b d6 8f bc
       0.044662457 -0.0031583582 -0.023313282 -0.017558267
000040 ed 02 39 bc 3c 91 60 bb fd ff 4f bd 60 1e f2 3c
       -0.0112922015 -0.0034266254 -0.05078124 0.0295555
000050 38 8e f8 3c 45 3b 5c 3b 89 43 0a 3d f3 d0 d7 bb
       0.030341253 0.0033604663 0.033755813 -0.006586188
000060 a4 40 c9 bb 45 82 09 bd a6 f9 87 3c 4a 70 77 3b
       -0.006141739 -0.0335715 0.016598534 0.0037756138
000070 26 0e 31 3d c8 7d f1 bc
       0.043226384 -0.029478922

weight f4 [2, 30]
000000 29 46 b3 bd 3f da c9 bd 21 e9 be 3d 8c 25 e3 be
       -0.08753616 -0.0985608 0.093218096 -0.44364583
000010 22 a0 a4 bd be 68 4a be e6 cd 09 be 2c ea 86 be
       -0.080383554 -0.19766518 -0.1345745 -0.26350534
000020 ec e8 c8 3e 83 fd 87 bd f3 45 2a 3e 70 cd b6 be
       0.39240205 -0.066401504 0.16628246 -0.3570361
000030 f4 a7 51 3e 43 df da 3e 05 d0 1e 3d 2a 0a 46 be
       0.20474225 0.4274846 0.0387726 -0.19339815
000040 8e 1c 67 be 13 a5 93 3e 21 62 42 be 12 83 e6 3d
       -0.22569486 0.2883688 -0.18982746 0.112554684
000050 1b 9d c0 bd fa 8b 92 3e 87 63 c6 3e 1c e7 ab 3e
       -0.094049655 0.2862242 0.38747808 0.3357476
000060 04 37 93 3e f2 0d 08 be 88 b4 26 3e 78 83 a2 bd
       0.2875291 -0.1328657 0.16279805 -0.07935232
000070 00 b2 82 3d be bb 7e 3d 90 32 a7 be 45 f6 5b 3e
       0.06381607 0.062190764 -0.32655764 0.21480663
000080 e9 c0 8b 3e 1a 9b 81 bd 26 84 d8 be 99 77 1b be
       0.27295616 -0.063284114 -0.4228832 -0.15182342
000090 71 96 8e 3e 34 d3 ad be 6b 62 b8 3d 20 6c 08 3d
       0.27849153 -0.33950198 0.09003147 0.03330624
0000a0 a5 69 d9 be 44 22 1d be 0a b6 6a 3e 17 e9 b9 3e
       -0.42463413 -0.15345103 0.22921005 0.36310646
0000b0 cc 90 4f 3e 00 ad d1 3e b7 b1 48 3e 97 c0 31 3e
       0.2027008 0.409523 0.19599043 0.17358623
0000c0 72 8f 7d 3d 66 25 cd be b7 7c e4 be 23 8c c5 bd
       0.06190438 -0.40067595 -0.446264 -0.096458696
0000d0 02 5c 96 3d 2e e4 2f be 62 98 15 be 56 62 91 3e
       0.07341768 -0.17176887 -0.1460891 0.28395337
0000e0 df 68 29 3e 76 49 c5 3e 3e 75 63 be bf a8 c9 3e
       0.16543911 0.3853261 -0.22212693 0.39386556

bias f4 [2]
000000 93 dc 2c 3e b6 c0 1e be
       0.16881017 -0.15503201
