saved_models/normal_full_data_model_L.pt (torch, 317259 bytes, 4 tensors)

weight f4 [100, 768]
00000000: d75f dfbd 1257 d3bd fe56 e2bd 79b7 a2bc
00000010: 61d4 9fbd 4634 37bc c482 703d 8e07 bbbb
00000020: 700d 3e3c 5ea6 f3bc b042 1dbd 409a 2bbe
00000030: 84e4 133e ea7d f4bc 7130 a23d ac11 b4bb
00000040: f030 d9bd 9f50 443c aae6 e5bd 4285 4b3d
00000050: d394 b2bc 47f3 d53c bd83 923c 643a e6bd
00000060: f5e2 b93b 78ce 31bc 6b6b 103d 6577 33bc
00000070: 6d04 153b a899 2cbd 5968 0fbe 6f24 8d3b
00000080: d9f8 9dbb 1cbb 103d 53d9 c03c 2fa4 cabd
00000090: 3417 d73c 1938 02bd 4f03 2c3d 528d b6bd
000000a0: d3c3 e8bc e7ce 2c3e 4622 41bd bc58 b9bd
000000b0: cba4 8b3d 0562 7cbd efd7 f1bd 4d1c c33c
000000c0: 53f3 07bd 925f 2d3d 1da3 67bd e323 76bb
000000d0: 7761 03bd 842b 7ebd 2418 923b b8ad 363d
000000e0: 28a1 e03c 4757 ebbc 3454 26bc 89f5 c9bd
000000f0: be3e 11bd d8ee 85bd bdf5 98bd fc16 a2bc
00000100: fb8c 0ebe f5d4 07be ed7f 0ebe 01e4 083c
00000110: 89e5 163e 97ef ec3c abb6 0a3d ec6d 4a3d
00000120: 3351 a83d cfdd 763c 7cdc 95bc 66a0 72bd
00000130: da9b f53d ec6b 50be 25ff a2bd c022 863d
00000140: 1b07 3ebd 8542 ae3d 6699 1e3e b963 dc3d
00000150: 255a 363d c484 253d a9c2 5d3d 9f1f c53d
00000160: 91ca 913d bcfc 623d 8b09 bc3a 3135 ab3a
00000170: 211a 223e b1cb 593d 3e2f 8abd 877a 8b3d
00000180: 82b3 5c3d 477c 6ebd 0974 9b3c ad54 aabd
00000190: 284b 8c3d 5944 07bc 4ebe 8c3d 8e6b 013c
000001a0: 1cb2 2cbe 200f b1bd 5c3a 053d 2716 c4bc
000001b0: 946f db3d 7e4e b5bd 8435 0fbe e041 1abe
000001c0: 7ac5 d23c 6774 3dbb 32fb fdbd 88ab d6bd
000001d0: c45b 103e e15d 28bd a59f 2ebd 25c0 cfbc
000001e0: 1e9e 0cbc 0a30 903d e95b 523c 3d09 0a3c
000001f0: 66f3 5c3d e71e 13be 7cc1 ddbd c873 3b3d
00000200: 3b67 cc3d 9d12 c43a 721a 083e 10c8 7a3d
00000210: 17a3 cebc 8fbe ecbc a356 173e ede0 a6bd
00000220: b9e6 273e b05a b2bb a572 013b c4c8 6fbb
00000230: 56b3 673d 2cdb c93d cbef ad3d d047 203d
00000240: 8e51 d9bd e3f3 bb3b 59f4 a93d b7f6 d73d
00000250: ecc1 2d3a 6fbf 7cbd 69b5 463c 3062 8abd
00000260: c463 023d b5b6 0a3d 86f1 2c3e 1599 14bd
00000270: 4d23 f23c a1e1 1fbd d468 583d 2b51 15bc
00000280: 97f4 22bc dae4 653d 45cd 88bc 5719 8e3c
00000290: c99f 613c a248 0d3c 30cf 0ebe 9955 8e3d
000002a0: 1448 6cbd fd91 703d 8bab 3ebb de83 953d
000002b0: 3b38 42bd cf4d 1fbd 1f04 40be 18c1 46bb
000002c0: 7322 963d 9a4a 21be 088a 083c 6f06 c3bc
000002d0: b9db 033d 0728 953d 6d77 283d 8d65 aabd
000002e0: a97b 01bb a4ba 2abd 434c ccbd 1f12 093c
000002f0: 2a2b afbc 6d57 5b3e 320f c0bd 454b 913d
00000300: 5b43 f4bd 7a7e 8bbd 1ffd d8bd 2e5d fc3d
00000310: 5fa4 81bd 4fae 59be 3006 0a3e def1 043d
00000320: a193 8fbc 0a65 18be 5c9b 5b3d 6908 bf3c
00000330: e94a b6bd abb4 4d3e 8912 d03d 9f19 7a3d
00000340: 24a9 2cbd d9ed c73d 37f7 973c a591 95bd
00000350: b81b b93b 8cec 84bd 99f4 5abd 6563 a7bc
00000360: 887c 043e 92f0 843d b204 d3bd 6d70 0a3a
00000370: 08d8 a63d d46e 3a3e 477b e9bb 1728 ba3d
00000380: a2dc 8e3d 80a0 56bd b0f1 10be 2915 bebd
00000390: 31ba d8bc 5bd3 e7bd 3df8 f73c 29b9 dabc
000003a0: b7c0 28bd 1bb3 61be 1c3b 12bd 7f77 72bd
000003b0: d431 9fbc f367 71bd 1255 06bd be4d aebd
000003c0: 5d3d 153e 15c4 16bd f50d a0bb 3204 193d
000003d0: 2edf 49bd aa48 3f3d 6936 c33d 82c2 fb3c
000003e0: 8d37 82bd fd10 d53c 2eae 59bd 67d1 923b
000003f0: af61 823e 6c4a cf3c 1a62 56bd 850e 3ebe
-0.10906952 -0.10319342 -0.11051749 -0.019862877 -0.0780418 -0.011181897 0.058718458 -0.0057076877
0.011599883 -0.029742416 -0.038393676 -0.1675806 0.1444264 -0.029845197 0.07919396 -0.0054952707
-0.10605037 0.011982112 -0.11225636 0.04968763 -0.02179948 0.02611698 0.017885083 -0.11241606
0.0056728073 -0.010852449 0.03525869 -0.010953759 0.0022738234 -0.042138726 -0.14004649 0.0043073217
-0.0048209247 0.03533469 0.023541128 -0.09894597 0.026256181 -0.03179178 0.041995343 -0.089136735
-0.028413689 0.16875802 -0.047151826 -0.09050128 0.06818541 -0.061616916 -0.11808764 0.023817206
-0.033191036 0.04232747 -0.05655204 -0.0037558011 -0.03207537 -0.06205322 0.004458444 0.044599265
0.027420595 -0.02872814 -0.0101519115 -0.09861285 -0.035460226 -0.065396965 -0.07468746 -0.01978635
-0.13920967 -0.1326483 -0.13915987 0.008355142 0.14735998 0.02892284 0.033865612 0.049421236
0.082186125 0.015067532 -0.018293612 -0.059235 0.11992617 -0.20353669 -0.07958821 0.06549597
-0.046393495 0.08508781 0.15488204 0.10761208 0.044519562 0.04040982 0.05414072 0.09625172
0.071187146 0.055416808 0.0014346106 0.0013062117 0.1583028 0.05317277 -0.06747292 0.068104796
0.05388213 -0.05822399 0.018976228 -0.08316932 0.068502724 -0.008256041 0.06872235 0.007899178
-0.16864818 -0.08645463 0.03252636 -0.023936344 0.10714641 -0.08852862 -0.13985258 -0.15064192
0.02572893 -0.0028908493 -0.12401427 -0.10481936 0.14097506 -0.041105155 -0.042632718 -0.025360176
-0.00858262 0.07040413 0.012839296 0.008425054 0.05394306 -0.14367257 -0.1082792 0.045764714
0.09980627 0.001495916 0.13291338 0.06122595 -0.025224252 -0.02889946 0.14779143 -0.0814837
0.16396607 -0.0054429397 0.0019752171 -0.0036588171 0.056567512 0.09856257 0.084930025 0.039130986
-0.106112584 0.0057358607 0.08298559 0.10545104 0.0006628323 -0.061706003 0.0121282125 -0.06757009
0.031833425 0.03386565 0.16889009 -0.036278803 0.029557848 -0.039033536 0.052834347 -0.00911359
-0.00994601 0.056126453 -0.016699443 0.017346067 0.013771006 0.008623274 -0.13946223 0.0694992
-0.057685927 0.058732975 -0.0029093947 0.07300542 -0.047416907 -0.038892563 -0.18751572 -0.0030327495
0.073307894 -0.15751114 0.00833369 -0.023806779 0.032191966 0.07283025 0.04112952 -0.083201505
-0.0019757545 -0.0416819 -0.09975483 0.008366137 -0.021382887 0.21420069 -0.09377898 0.07094435
-0.119269095 -0.06811233 -0.10595154 0.1232246 -0.063301794 -0.212579 0.13478923 0.032457225
-0.01752645 -0.14882293 0.05361496 0.02331944 -0.08901007 0.2008845 0.10159785 0.06105959
-0.042153493 0.09762163 0.018550498 -0.0730317 0.0056490563 -0.0649043 -0.053455923 -0.020433137
0.1293813 0.06491198 -0.1030363 0.0005281035 0.081466734 0.1820634 -0.0071252915 0.09089678
0.06975676 -0.05239916 -0.14154696 -0.0928138 -0.02645597 -0.1131961 0.030269736 -0.02669962
-0.041199412 -0.2204098 -0.035700902 -0.05919599 -0.01943294 -0.058937024 -0.032795973 -0.08510922
0.1457419 -0.036808092 -0.0048844763 0.037357517 -0.049285106 0.046700157 0.09531862 0.030732397
-0.06358252 0.026009077 -0.053144626 0.004480529 0.25465152 0.025304042 -0.05233965 -0.18560226

bias f4 [100]
00000000: a975 81bd 3033 7f3d db1e ad3c 2268 5c3d
00000010: be47 923d 6237 293e 6ba2 4b3d e996 173d
00000020: d448 4f3d ecc0 883d d19f 34bc 4775 d4bb
00000030: ccb9 92bd 9691 873d 07ab 34bc 04fb 953d
00000040: 9053 9c3c d697 9b3d 7972 863d 3474 ca3c
00000050: 405d 1d3d ae33 e73c bae4 b5bc 0a3b 103d
00000060: 4dcd 20bd 70af 1c3c 2ca4 283d 8d26 543c
00000070: 1fa4 d53d 2b0f 9e3d 71fb f23d 13cc 4d3d
00000080: accc bb3c 095e dc3c 6432 c33d c1a6 a63d
00000090: 60b5 993d d89a b23d 2a40 693c abfb a23d
000000a0: aba5 953d b51d 05bb 79b3 0d3d c0d3 183d
000000b0: f1b4 cc3a ca56 793d 6d5d 3f3c 8609 8b3d
000000c0: ef88 163c 16f2 d93c 7806 193d 1dba 883d
000000d0: ed2b 973d b1b9 e03d 557e b63d a264 2b3e
000000e0: b1be b63b 7713 cb3d cd0e f33c c5de 913d
000000f0: 385a 8a3d 7535 323d 9efa 9cbc 87a5 a33d
00000100: 7d68 dc3c 028b 5a3d 334c 9c3d d9f6 48bd
00000110: c015 383c da65 7b3d 8e7e 013e be12 153d
00000120: 6142 013d a558 b33b 7910 43bd 0797 1d3d
00000130: d2ed b03d a2c6 933d 0e5c 463d 26b3 50bd
00000140: d049 b43d 10cd 86bb ef5f 0f3e 0819 923d
00000150: 9074 fc3c 5a9d 573d 1ca2 fb3d 670c 0b3c
00000160: e833 f2bb d25f 183e 969e 9b3d 2354 2d3d
00000170: da81 b1bc 744f 093e f461 ae3c 977c 103c
00000180: f847 a8ba b7a7 8f3c 03fd a13d 545a ca3c
-0.0632127 0.062304676 0.021132877 0.053810246 0.0714259 0.16525033 0.04971544 0.037009154
0.050606564 0.06677422 -0.011024431 -0.006483707 -0.07164344 0.06619565 -0.011027104 0.07323268
0.019082814 0.0759732 0.06564803 0.024713613 0.03841901 0.028222885 -0.022203792 0.035212554
-0.03925829 0.009563312 0.04117219 0.012948644 0.10431694 0.07717737 0.11864365 0.05024345
0.022924744 0.026900308 0.095310956 0.081372745 0.07505298 0.0872094 0.014236489 0.07958158
0.07306989 -0.0020311896 0.034594987 0.037311316 0.001561789 0.060873784 0.011679989 0.06788926
0.009187921 0.026604693 0.037359685 0.06676123 0.07381425 0.10972918 0.08910815 0.16737607
0.0055769314 0.09915822 0.029670143 0.07122568 0.06755489 0.04350801 -0.019162472 0.07990556
0.026905293 0.053355224 0.07631721 -0.049063537 0.011235654 0.06137643 0.12645933 0.036394827
0.031557444 0.0054732137 -0.04762313 0.03847411 0.086391106 0.072156206 0.048427634 -0.0509521
0.08803141 -0.004113801 0.1400144 0.071336806 0.0308173 0.052640297 0.12286779 0.008486844
-0.0073914416 0.14880303 0.07598607 0.042316567 -0.021668363 0.13409215 0.021286942 0.008818767
-0.0012838831 0.017536027 0.07909586 0.024701275

weight f4 [2, 100]
00000000: fe6e b2be 9418 58be e3dd 0a3e 19a3 3c3e
00000010: 0f3e 80be 02af aa3e 8cd9 c53e 5a58 a0be
00000020: c391 4d3e 693a 4b3e 3cf3 9ebe 9232 85be
00000030: 7cc7 97be 19ef c6bd c8d0 b2be 68b7 4abe
00000040: d74c 90be 05b2 933e f3fd a53e 7559 bf3e
00000050: 0fe6 70be c437 c53e 0573 b9be 7b7c 9f3e
00000060: 3180 a8be 653f 3dbe ab5a a63e f4ea bcbe
00000070: 7ed4 823e 33a5 603e b3df 9d3e 1765 973e
00000080: a645 94be 413f 80be e54f 0e3e 1b4e ac3e
00000090: 6c6a 403e 57e3 a63e 1da4 3a3e 56bc a33e
000000a0: 8283 983e 429c 8fbe 1c74 843e 995f 61be
000000b0: 2e48 8fbe 27bf 19be 5af5 c2be 6cbf b93e
000000c0: 3612 99be 02e4 0cbe e978 b73e 56a1 8a3e
000000d0: 2648 9a3e 82b1 8f3e fdac 743e 6f2a 8a3e
000000e0: 1c14 56be 0e0c 9abd afb0 ca3d a868 a23e
000000f0: 44cd 99be e035 93be aa88 d8bd f4fb 563e
00000100: 95d6 b6be 431d ac3e 37fc 083e 0003 6fbe
00000110: baed 883e b5e5 8b3e 0e06 8c3e d79b 8abe
00000120: 356e c73d d7cc abbe c59a a1be e21a 99be
00000130: b1ef ab3e 80ab 863e 1cce 2dbe e5fc 79be
00000140: f238 453e d0b6 b7be 9338 d33d 6828 1e3e
00000150: e40d 163e 0db6 08be 9315 c03e b908 8bbe
00000160: cac6 85be 5909 8a3e 1340 09be 2e7c 8bbe
00000170: e5f8 a3be 425f 9f3e d82e 043e 3ade 8ebe
00000180: cebd b2be 41fb 8bbe 6fb7 883e 9304 893e
00000190: 91b1 49be 108b ce3e d690 12bf 0c89 05bf
000001a0: 6be9 dd3e 7297 743e 420a 9dbe eee7 563e
000001b0: 4789 d4be 1520 ccbe e945 0c3f 43e7 a43e
000001c0: 3118 9cbe ad03 f53e 5793 b5bd 21bb e73e
000001d0: 1692 fb3e 4894 8dbd 3af6 ebbd d339 90be
000001e0: 8ea6 fc3e 0ff5 89be 1b15 dd3e 55e5 b0be
000001f0: 7a5e 7bbe 5257 043f 6143 fabd 81e7 ae3e
00000200: cee9 20be e025 85be 3cc5 1e3e 931f 4dbe
00000210: 1b95 803e db6e cb3e 11fb f6be d491 d8bd
00000220: 4247 aabe a236 5e3d eaa8 16bf d2a7 94bd
00000230: 547d 4fbe d081 2abd 0c1d e1be 5e41 c93e
00000240: 7307 fe3c 44ba c63e 200c 0c3f 8845 95be
00000250: 4bb6 ae3e 1d60 0c3f 2f1e acbe 2b25 39be
00000260: 2cdf 2dbe ca04 373d d3ca 8ebd 925b 693e
00000270: b698 d03e d8db b93e 12e1 13bf 2ea3 0b3e
00000280: 0e52 db3e f226 c63e a0f8 cfbe 7cd7 f1be
00000290: 1e02 fd3e 2d3f a0be 3aa0 e6be 3626 01bb
000002a0: 7786 cfbe 9630 e1bd 83c6 1cbc 8d35 cf3e
000002b0: 051f 0fbf 32ce 0c3f 0d63 1b3d 28c3 b03e
000002c0: b368 7b3e 895a b8be 37a0 093f a48e 07be
000002d0: bf1b 8bbe 6a75 823e d39f ab3e 7465 d2be
000002e0: 7804 efbe 36a4 ec3e deaa 813e a93e 5c3e
000002f0: 4908 703e fa6c d73e 0754 fb3e ca32 f13e
00000300: f8d4 0f3f 4192 2d3e 05e1 15bf c164 c83e
00000310: 55ba e93d 211d 023f 4ebc c9bd ad24 ddbe
-0.34850305 -0.21103126 0.13561206 0.18421592 -0.25047347 0.33336645 0.38642538 -0.31317407
0.20075135 0.198465 -0.31044948 -0.26015145 -0.29644382 -0.09713573 -0.34924912 -0.19796526
-0.28183624 0.28846756 0.3242031 0.37372938 -0.2352526 0.38519108 -0.36220565 0.3114966
-0.32910302 -0.18481214 0.3249105 -0.36898005 0.25552744 0.21938019 0.3083473 0.29569313
-0.28959388 -0.2504826 0.13897665 0.3365334 0.18790597 0.32595322 0.18226667 0.31979626
0.29787832 -0.28048903 0.25869834 -0.22009124 -0.27984756 -0.15014325 -0.38077813 0.36278856
-0.29896706 -0.13758853 0.35834435 0.27076215 0.3013317 0.28065115 0.23894115 0.269855
-0.20906109 -0.075218305 0.09896981 0.3172047 -0.30039418 -0.2875204 -0.105729416 0.2099455
-0.35710588 0.33616075 0.13377462 -0.23340988 0.2674387 0.2732369 0.2734837 -0.2707202
0.09737817 -0.33554718 -0.31563392 -0.29903322 0.33581308 0.2630272 -0.16973156 -0.24412878
0.19260004 -0.35881662 0.10313525 0.15445101 0.14653736 -0.13350697 0.3751646 -0.27155092
-0.26128227 0.26960257 -0.13403349 -0.2724318 -0.3202583 0.31127363 0.12908494 -0.2790392
-0.34910434 -0.2734013 0.2670245 0.26761302 -0.19696642 0.4034047 -0.5725225 -0.5216224
0.43342146 0.23885897 -0.3067189 0.20986912 -0.41510984 -0.39868227 0.54794174 0.3220769
-0.30487207 0.47854367 -0.088659935 0.45259956 0.49134892 -0.06913048 -0.11521573 -0.28169116
0.4934582 -0.26944777 0.43180165 -0.34549966 -0.24547759 0.5169574 -0.12219883 0.34160998
-0.1571419 -0.2600546 0.15504926 -0.20031576 0.25113758 0.39733014 -0.48238423 -0.105746895
-0.3325749 0.05425132 -0.5885149 -0.07258572 -0.20262653 -0.041627705 -0.43967474 0.39307684
0.031009411 0.38813984 0.54706 -0.2915461 0.34123453 0.5483416 -0.33616778 -0.18080585
-0.16979665 0.0446823 -0.069722794 0.22788838 0.4074151 0.3630054 -0.57765305 0.13636467
0.4283604 0.38701588 -0.40619373 -0.47234714 0.49415678 -0.312982 -0.45044118 -0.0019706613
-0.40532276 -0.10995595 -0.009568813 0.40470544 -0.5590671 0.5500213 0.03793626 0.34523892
0.24551658 -0.36006573 0.53760093 -0.13238007 -0.27169606 0.25480205 0.33520374 -0.41093028
-0.46683097 0.46219033 0.25325674 0.21508278 0.2344066 0.4207533 0.49087545 0.4710906
0.5618434 0.16950323 -0.5854648 0.3913937 0.11412493 0.508257 -0.098503694 -0.43192044

bias f4 [2]
00000000: 7b2d 003e 75d7 083d
0.1251735 0.0334086
