saved_models/normal_full_data_model.pt (torch, 101285 bytes, 4 tensors)

weight f4 [30, 768]
000000 d1 6a 24 bd da 02 63 3d a1 db a6 bd 83 e1 50 3c
       -0.04014093 0.05542264 -0.0814736 0.012749079
000010 25 e1 05 3d df 78 08 bc 5a f9 9e bd d6 d7 c2 bb
       0.032685418 -0.008329599 -0.07762404 -0.00594614
000020 72 81 81 bd 17 eb a3 3d 10 12 cf 3d e5 41 33 3d
       -0.06323518 0.08003824 0.10110867 0.043764014
000030 8e 1e 6e bc 40 66 99 3d df bc 43 3d 91 41 39 bd
       -0.014533652 0.07490206 0.047787543 -0.045228545
000040 1f 04 cb 3b 89 7f a3 3c d1 3a 19 3d 0a f2 d0 bc
       0.0061955596 0.019958274 0.037409607 -0.025506038
000050 b4 fb bd 3d 89 15 80 bc ea a5 10 bd 05 ba 95 3d
       0.09276524 -0.015635269 -0.035314478 0.07310871
000060 be 21 d3 bd 1b 10 50 3d 7b 14 8e 3b a7 06 b3 3d
       -0.1030917 0.05079661 0.0043359376 0.08741503
000070 e7 bc 0e bd 93 ed 11 bb 38 80 69 bd 7d b8 c1 3d
       -0.03484812 -0.002226685 -0.057007045 0.094590165
000080 90 ee 15 3d 89 a6 85 3d 85 9c 4e 3d 67 c7 6b bd
       0.036604464 0.06525905 0.050442237 -0.05756321
000090 81 5d 82 3d 62 eb 7d bd fd 0d d4 bd 30 78 d5 3d
       0.06365491 -0.061992057 -0.103542306 0.104233146
0000a0 98 5d a1 3d 97 31 ce bd 1f 7b 31 3c df 65 c5 bc
       0.0787918 -0.10068052 0.010832577 -0.024096427
0000b0 0b 40 8b bd 56 6a c8 3d 49 24 d1 3c 5c 2f 9e 3d
       -0.067993246 0.09785907 0.025529997 0.07723877
0000c0 ab ce d0 3d a4 a5 20 bd ea 34 dc bd 57 a6 bf 3d
       0.10195669 -0.039220467 -0.1075228 0.09357899
0000d0 00 c9 dd bc 58 f5 8e bc c3 c1 dd 3d f8 33 e7 bc
       -0.027073383 -0.017450973 0.10827973 -0.028223023
0000e0 8a a3 56 bd d0 44 4b 3d d4 fa 22 bd 39 28 95 bd
       -0.052402057 0.04962617 -0.03978999 -0.072830625
0000f0 fe 78 dd bc 52 9d 21 bd af 95 67 3b b8 70 f0 3b
       -0.027035233 -0.039456673 0.003533702 0.007337656
000100 6e 7b 91 3a e2 22 c3 3d c3 ee 0d 3d 8f 76 1a 3d
       0.0011099407 0.09528138 0.03465153 0.037710723
000110 0e 0a 7a bd 55 d2 39 3d 52 4b 3f bc 1a 90 0e 3d
       -0.061044745 0.045366604 -0.011675673 0.034805395
000120 be ed e1 bc 55 9c 15 bd 70 6d 5b bd 02 45 b0 bd
       -0.027579185 -0.036526043 -0.053571165 -0.08606912
000130 3d 9a bd 3c a0 29 76 bd 74 79 ec bc e3 33 48 bd
       0.023144836 -0.06009829 -0.028866507 -0.048877608
000140 7b 3f 80 bc 4d bb 14 bd 2b b4 73 bd 5c 38 88 bd
       -0.01565527 -0.036311436 -0.059497993 -0.06651375
000150 a7 15 a6 3c 19 26 f6 3c 79 b3 c5 3c ae 4e 1d bb
       0.020273997 0.030047463 0.02413343 -0.0024003196
000160 14 a7 8d bc e3 6b b4 3c c4 c3 94 bc cc 57 86 bc
       -0.017291583 0.0220241 -0.018159755 -0.016399287
000170 5f 1e a9 bc 4a dd 98 bd 62 89 f8 3c 59 33 ca bb
       -0.020644365 -0.074640825 0.030338947 -0.006170672
000180 a0 1e f6 bc a2 97 7d 3d 71 12 33 bb f4 cb ca bd
       -0.0300439 0.061912186 -0.0027324224 -0.09902182
000190 7d 53 b2 3c f7 3a dc 3b 1e e5 6b 3d f7 03 77 bb
       0.021768326 0.0067208963 0.05759155 -0.0037691572
0001a0 42 f7 af 3c 7e 70 04 bd 4e 6b 36 bd ca 3e 86 3b
       0.021480206 -0.032333843 -0.044535927 0.0040968405
0001b0 6b be 21 3d 78 8b 26 bd 3f d5 cd 3c 25 b0 4c bc
       0.039488237 -0.04066035 0.025126098 -0.012493168
0001c0 f0 1e 91 3d 46 03 4c bc 19 92 a2 3d e7 4e d7 3c
       0.07085979 -0.012451952 0.07938022 0.02628274
0001d0 3c 20 a2 3d 59 87 80 3d 2c c9 2e 3d 00 8f 20 bb
       0.079163045 0.062758155 0.04267232 -0.0024499297
0001e0 52 e4 8f 3c 1f a1 9c 3d 2d 50 df bd 22 aa 99 3c
       0.017564926 0.07647919 -0.10903964 0.018757883
0001f0 fe e5 ff 3c 1d 82 28 bd c7 28 a1 bc 08 cf 97 3d
       0.031237599 -0.04113971 -0.019672764 0.07412535
000200 8c af 14 3c 7a 2d 9c 3b 5d 95 52 3d 3e c5 ab 3b
       0.009075057 0.0047661634 0.051411975 0.005242019
000210 3f f4 7e 3d 46 cb b5 bd 85 76 66 3b da 73 90 3d
       0.06224465 -0.08876662 0.0035165858 0.07053347
000220 a4 9f 43 bc a7 f0 c3 3c 81 6b 8b 3c 3c 7f af 3d
       -0.011939917 0.023918463 0.017019035 0.0856919
000230 d3 f8 60 bc 03 f4 41 bd 48 ae 0a bd cc d5 35 3d
       -0.013731199 -0.04735185 -0.033857614 0.044393346
000240 12 57 e9 ba d0 ba fc bb 19 b9 5e 3c 90 4e 3d bd
       -0.0017802438 -0.0077126995 0.013593935 -0.0462175
000250 45 5a 9a 3b 73 9e 1f bd d4 80 c0 3b 02 a6 2a 3d
       0.004710468 -0.03896947 0.0058747325 0.041662224
000260 2c d7 8c bc 38 14 88 bc 96 d3 95 bd 50 6e 24 3d
       -0.017192446 -0.016611204 -0.073157474 0.040144265
000270 72 c6 e8 3c 94 5c c2 3c d7 91 69 bd 62 61 24 3d
       0.028414939 0.023725785 -0.05702385 0.040131934
000280 53 e4 6a 3d a8 20 43 bd fc 54 f0 3b bb d7 19 3d
       0.057346653 -0.047638565 0.0073343497 0.037559252
000290 dd 51 b6 bc 58 7a c0 3d 38 c1 74 bd 4f 54 09 b7
       -0.022255832 0.09398335 -0.05975458 -8.185466e-06
0002a0 82 7f a3 bc 37 c0 09 3c 09 8f bd 3d 31 9b 88 3d
       -0.019958261 0.008407644 0.092557974 0.066702254
0002b0 6a 89 8a bd 7f 79 21 bd 22 25 de 3d ef 45 99 bd
       -0.06764491 -0.03942251 0.10846926 -0.07484042
0002c0 29 9d d8 bd 34 a9 a8 3d 63 f5 c7 bd 5f e7 6f bd
       -0.10576851 0.08235398 -0.09763601 -0.058570262
0002d0 4a 58 43 3d 10 ef 22 3d 87 88 54 3d 3b 22 79 bd
       0.04769162 0.03977877 0.051888015 -0.06082366
0002e0 70 5b 8f 3d 6a 35 bf 3d cc e2 04 bc f9 bf 84 bd
       0.06999862 0.0933636 -0.008110713 -0.064819284
0002f0 6f 4f 7b 3c 1e ce a4 bc 1e 18 5b bd 4b d9 3b 3d
       0.015338763 -0.020117816 -0.053489797 0.045861524
000300 ac 71 9f 3d 7f 1f 35 bd 25 b0 96 bc e5 6f 87 3d
       0.07785353 -0.04421949 -0.01839454 0.06613139
000310 fd f7 53 3d 92 e3 af bc 2e 0d eb 3c 6c 01 d9 bb
       0.051750172 -0.021470819 0.028692808 -0.006622484
000320 d0 5d bc bd d6 ef 0a 3d 5b 11 02 3d 7b 41 5b 3d
       -0.09197581 0.03392013 0.031754833 0.053529244
000330 2e 17 96 3d c2 7d 99 bd cc 78 87 3d ad 9b 3e 3d
       0.0732864 -0.074946895 0.06614837 0.046535183
000340 53 1f 96 bb d9 5d 9a bd dc b6 38 3d 63 2e 49 3d
       -0.004581371 -0.07537431 0.045096263 0.049116503
000350 c3 fc b2 bb 1a 16 d3 3d 92 c1 0d 3d d0 ab 25 3d
       -0.0054622605 0.1030695 0.03460843 0.040447056
000360 cb 01 20 3d 54 90 21 bd cf be 8a bd 74 2d d3 3d
       0.03906421 -0.039444283 -0.06774675 0.10311404
000370 da c8 38 3d c7 96 6b 3d 7c 87 20 3d 8a 84 b2 bd
       0.045113422 0.05751684 0.039191708 -0.08716686
000380 83 4c 31 3b 81 fc ba bd 99 89 18 bd 2d 04 b5 3d
       0.0027053661 -0.091301925 -0.0372406 0.08838687
000390 5d 82 89 bd e9 ed 0b 3d 40 f6 65 bd a1 5a 0a bd
       -0.06714318 0.034162436 -0.056143045 -0.033777837
0003a0 ec e5 89 3d df 65 6a bd 73 72 a3 bc e3 35 a2 bd
       0.06733307 -0.057226058 -0.019952035 -0.07920434
0003b0 09 30 86 bd 91 a1 ae bd ad b2 b9 bc 3c 35 d5 3c
       -0.06552131 -0.0852691 -0.022668207 0.02602636
0003c0 62 d1 2a bd a6 3f 9a 3d 81 dd 49 3d 15 25 00 3d
       -0.04170359 0.07531671 0.04928351 0.031285364
0003d0 cd 91 5c 3d 10 14 0e bc bd a1 be bc 31 18 53 bd
       0.053849984 -0.008671775 -0.023270482 -0.051536743
0003e0 f4 07 63 3d 28 7e 0b 3c b2 90 70 bc 85 b7 89 bc
       0.055427507 0.008513965 -0.014682936 -0.016811142
0003f0 11 c7 96 bd fb a4 75 3d c6 84 75 bd eb a0 eb 3a
       -0.07362188 0.05997179 -0.059941076 0.0017977034

bias f4 [30]
000000 54 b6 14 bc 64 bc 60 bc 95 45 6b bd 1b fc 90 bc
       -0.009076674 -0.013716791 -0.057439405 -0.017698338
000010 a6 e4 fc 3c ad 04 9e bc cd 7a 42 bd 04 bd 77 3c
       0.030870747 -0.019289339 -0.047480393 0.015120748
000020 7f 91 91 bc 0a 17 7d 3c ad 27 09 bb 84 3c 9b bc
       -0.017769573 0.0154473875 -0.002092819 -0.018949755
000030 00 bb d7 3b 17 7b b3 bb 19 9f 75 bd cc 0a 05 3d
       0.0065835714 -0.00547732 -0.05996618 0.032481
000040 95 1a c1 bc ec f3 3f 3d 23 27 4c 3d ec 35 c9 bc
       -0.023572246 0.04686348 0.04984201 -0.024561845
000050 cc 33 05 bc fc 10 12 3d 0e 05 28 3d 9f 4f 6f 3d
       -0.008130025 0.03566073 0.041020446 0.058425542
000060 70 35 80 3c 60 0e 33 bc 24 44 50 bd 92 a2 bf 3b
       0.015650481 -0.01092872 -0.050846234 0.0058482373
000070 32 77 1d 3d f1 03 20 3c
       0.03844375 0.009766565

weight f4 [2, 30]
000000 d3 65 6b 3e df 5f ad be 96 f3 be be 6c 14 97 3e
       0.22988062 -0.33862206 -0.37295216 0.29507768
000010 51 16 c8 3e 08 22 dd be 0f 54 9c be 81 40 03 bd
       0.39079526 -0.43190026 -0.30532882 -0.032043938
000020 2e 49 b8 3e b9 c8 7b 3d 57 b9 52 3e 7c d5 18 be
       0.35993332 0.06147072 0.20578514 -0.14925188
000030 63 66 da be aa 08 b8 3d 41 1b 64 be 6c d8 a5 3d
       -0.4265624 0.089860275 -0.22276022 0.0809792
000040 47 3f cd be 1c c6 7d 3d d9 c3 0d 3e d4 c6 65 be
       -0.4008734 0.06195651 0.13844241 -0.22439128
000050 82 56 c2 be c5 96 b9 3e c9 83 31 3e 11 68 a6 3e
       -0.37956625 0.3624784 0.17335428 0.3250127
000060 3a 0b 87 3e 9c 6f bb 3d a3 d8 89 be 70 a8 7a bd
       0.26375753 0.09152147 -0.26923093 -0.06119579
000070 e3 7e ae bd cf 5f a5 3e 75 13 05 be 4e 04 10 be
       -0.085202955 0.3229966 -0.12995704 -0.14064142
000080 42 2b 48 be 51 25 c4 3e 77 ce d7 be 55 27 01 bd
       -0.19547752 0.3830972 -0.42149708 -0.03153165
000090 64 ca 9e bd a6 7c a0 bd d7 6b cf 3e d4 3c 91 3e
       -0.07753447 -0.07836275 0.40511963 0.2836672
0000a0 70 1b b1 3e ae 15 19 3d f0 d6 8b 3e ae 70 cf 3e
       0.34591246 0.03737419 0.27312422 0.40515655
0000b0 67 1b cf bd e7 88 25 be dc c3 77 bd 15 85 41 be
       -0.101126485 -0.16165505 -0.06048952 -0.18898423
0000c0 d0 b3 78 be 9a c1 46 be de b8 8e 3e 68 2f c6 3e
       -0.24287343 -0.1940979 0.27875417 0.38708043
0000d0 84 62 95 3d 65 c5 60 3e 4e f9 d6 3e 40 9c f9 3d
       0.07294181 0.219503 0.4198708 0.121880054
0000e0 b8 55 03 3e bc 40 ad 3e e9 02 de be fa 3b e3 be
       0.12825668 0.3383845 -0.43361595 -0.44381696

bias f4 [2]
000000 3f d5 ec bd c8 c6 24 3d
       -0.11564111 0.040228635
