saved_models/static_quant_full_data_model.pt (torch, 101791 bytes, 4 tensors)

weight f4 [30, 768]
000000 4a 19 d1 bb 0b 1f ab be d0 27 21 bd 33 c7 85 bd
       -0.0063811885 -0.3342212 -0.03934461 -0.06532135
000010 e5 6c f5 bd 79 df 21 be e5 40 34 3e 4e 16 62 bc
       -0.119836606 -0.15807904 0.1760288 -0.013799263
000020 88 79 07 be 0f 3a 77 bd 6a 3a 28 be 86 f3 bd 3c
       -0.13229954 -0.060358103 -0.16428533 0.02318741
000030 26 e1 88 3d ff f0 6a 3c 21 5a 8c 3d aa 3d 6d 3d
       0.06683569 0.0143396845 0.06853128 0.057920136
000040 02 81 fc bd 0f 9f 07 3e 3b 08 54 be f7 b4 cd bd
       -0.12329294 0.1324427 -0.20706265 -0.10044282
000050 16 ba 3b bd 8d 7b e3 bd a8 67 21 3e 6e d1 55 bc
       -0.045831762 -0.1110755 0.15762198 -0.01305042
000060 50 bb 24 3d 69 0d 45 3b 82 df a0 be 77 b4 70 3e
       0.040217698 0.0030067808 -0.31420523 0.23506342
000070 99 5f 31 3e d5 49 5a 3b 60 c6 a0 bc 6a 55 e7 bb
       0.17321624 0.0033308167 -0.019625843 -0.0070597427
000080 31 e6 db bd c8 63 fb bd fb b4 a4 bc f8 be 1d 3e
       -0.10737265 -0.12274891 -0.02010583 0.1540488
000090 c7 82 0e be 61 dc 27 3e 25 22 0e bd 86 a1 2d be
       -0.13917075 0.16392662 -0.03470053 -0.16956148
0000a0 a4 50 20 ba b6 39 07 3e 3f 1c aa bc eb 30 8d 3e
       -0.0006115532 0.13205609 -0.020765422 0.27576384
0000b0 1f 78 7c be f2 c7 86 be 57 e3 52 be 1b 3c 83 3d
       -0.24655198 -0.2632442 -0.20594536 0.064079486
0000c0 a5 f7 15 3e ef fd 72 3d e0 1a 3b 3d 76 e6 3f be
       0.1464525 0.0593242 0.045679927 -0.18740258
0000d0 7c 7b 4d bc 3d 91 fa 3d dd 53 02 3d 32 e8 ca bc
       -0.012541648 0.12234733 0.03181826 -0.024768922
0000e0 99 33 b0 3e 78 69 13 3e 7a f1 b0 3e 14 04 8e 3d
       0.34414366 0.14395702 0.34559232 0.069343716
0000f0 06 b8 1e 3e 42 b7 e2 bd 9e 52 53 be bb a3 93 be
       0.15499887 -0.1107011 -0.20636985 -0.28835854
000100 f4 22 d1 bd 9a e5 30 bc b7 69 b5 be 05 0b 92 be
       -0.10211745 -0.010796929 -0.35432217 -0.28524032
000110 2f 68 46 3b 4b b1 8a 3e 78 e6 85 bd 62 ca 8d 3e
       0.00302745 0.2708839 -0.06538099 0.27693468
000120 17 5e 18 3e 10 d0 bc be b7 b3 66 be 77 48 c3 be
       0.14879642 -0.3687749 -0.22529493 -0.38141224
000130 84 f2 d3 bc e0 c5 a9 bd 55 1f 83 3e f2 f9 a1 3e
       -0.025872476 -0.08289695 0.25609842 0.31636006
000140 ef e2 2b 3d c2 4e 59 3d 2c 9a e5 3b 94 86 ca 3c
       0.041964468 0.053053625 0.007006904 0.024722375
000150 b4 05 20 3e bb d0 86 bd 82 1c 6b be c5 20 c6 bd
       0.15627176 -0.06582781 -0.22960094 -0.09674219
000160 d4 02 c2 3e e3 aa 8e 3e 07 3b 3c 3e e0 a7 04 3e
       0.37892783 0.2786475 0.18381892 0.12954664
000170 3b c6 2c 3e 34 8c 98 3e 9a 85 4e be 9d 19 2a 3e
       0.16872494 0.29794466 -0.20168152 0.16611333
000180 45 b1 1b be 7d 55 9d 3d b5 7c 3b be 71 d3 8b be
       -0.15204342 0.07682321 -0.1830929 -0.27309754
000190 a3 19 2e bd 2f bb 2e 3e 7a c0 0d 3d 5f b1 00 bb
       -0.042504918 0.17063592 0.034607388 -0.0019636971
0001a0 bb 54 bb 3e d4 09 6a bd c4 23 a3 3d b8 c1 b3 3e
       0.36588082 -0.05713828 0.07965806 0.35108733
0001b0 1c 84 3c 3d 5c 89 44 bd 9f ba ed 3c cc 16 af bc
       0.046024427 -0.04798256 0.029019652 -0.021373175
0001c0 08 e9 fd be b9 f5 a5 bd 56 45 b5 bd b1 b2 3f be
       -0.4959185 -0.081035085 -0.088511154 -0.18720509
0001d0 cf 77 3e bc 39 d3 30 3e 3c 1b e1 3d 3d ba 2b 3e
       -0.011625244 0.17268075 0.10991523 0.16770263
0001e0 6c 3d 2a 3e 0a 1a cc 3c e2 89 c6 bd 7b cf 4f 3e
       0.16624993 0.02491476 -0.09694268 0.20293991
0001f0 92 41 c7 3e ae cb 04 be 86 ce 94 be 7c 77 d4 3d
       0.38917214 -0.12968323 -0.29063815 0.10374352
000200 6d 10 60 3e af 45 59 be 1e 3a 61 3e 5b 84 62 be
       0.21881266 -0.21217988 0.21994826 -0.22120802
000210 4b d1 79 3d 04 b5 e7 bd cb 6e 6f 3e f2 e7 d6 3d
       0.060990613 -0.11313823 0.23382108 0.10493459
000220 14 3e 3e 3c 1a 17 9a 3d 64 95 d2 bd dd 4a b4 be
       0.01161148 0.075239375 -0.102824 -0.35213366
000230 77 e2 9b bd f9 03 87 bd fb 8d 27 3e 33 1b e0 3d
       -0.07611554 -0.065925546 0.16362755 0.10942688
000240 17 55 cf be d6 73 59 be f4 1b 62 3e f3 7b 70 3d
       -0.40494606 -0.21235594 0.22080976 0.058711957
000250 7f 50 9b be 0c bd b6 3d 66 7c e0 be 61 f2 b1 be
       -0.3033485 0.089227766 -0.43844908 -0.34755233
000260 b3 40 c3 bd e0 fc b7 bd 8c ef 71 3e 6b e8 cb 3d
       -0.09533825 -0.08983779 0.23626536 0.099564396
000270 0a ec 18 3e 8c bf 1b bc d9 b4 d2 3d df 23 57 bd
       0.14933792 -0.009506118 0.102884 -0.052524444
000280 28 2d 10 be 9e ea 18 3e 11 cd 82 3e 82 03 a0 bb
       -0.14079726 0.1493325 0.25547078 -0.0048832307
000290 81 9f e1 3e c4 cd d1 bd 20 3c a4 be 9f f7 24 be
       0.44067004 -0.10244325 -0.32077122 -0.16110085
0002a0 9d e9 8a be 7e af 3f 3d 6f e3 ae be 32 fb 80 3e
       -0.27131358 0.04679822 -0.34157893 0.25191647
0002b0 0f 4f 39 3e 6b 10 08 be ef 16 9b bd 16 ca bb be
       0.18096565 -0.13287513 -0.075727336 -0.36677617
0002c0 c8 e6 ac 3d e7 e8 ea 3c 5c 19 87 bd df 99 b4 3e
       0.084424555 0.02867551 -0.06596634 0.35273644
0002d0 e8 35 2f 3e f5 00 66 be 7a f7 6b 3d 98 89 b7 3d
       0.17110407 -0.22461303 0.05760906 0.08961791
0002e0 4c 29 01 3e e6 28 8d 3d 25 b1 63 bd bd b1 58 3e
       0.1261341 0.068925664 -0.05558886 0.21161552
0002f0 b0 ab 2d be 5b 03 1b bd 39 b8 10 3c 08 b3 a2 bd
       -0.16960025 -0.037844997 0.008832985 -0.07944304
000300 c3 52 29 3d 67 79 06 3e 70 5b a9 3e 26 ae 30 be
       0.041338693 0.13132249 0.33077574 -0.17253932
000310 88 f2 1b 3e b7 da ae be 3b 37 1c bd 9e db 4c bc
       0.15229237 -0.3415124 -0.03813861 -0.012503533
000320 78 75 6c be a5 08 37 be 9b 51 30 3e 92 2d 5a be
       -0.23091686 -0.17874391 0.1721863 -0.21306446
000330 d9 cb 37 be e7 02 9a 3e 5a a1 ea be 53 9f ee 3d
       -0.17948855 0.3008034 -0.45826226 0.116514824
000340 31 90 91 be e1 05 85 3e 83 7e 4d be 78 23 be 3d
       -0.28430322 0.25981048 -0.20067792 0.09284109
000350 b5 e2 76 3e 26 79 82 3d 2c 6a 4e bd e2 a8 1b bd
       0.2410992 0.063707635 -0.050394222 -0.038002856
000360 b1 d6 79 3e d1 3a c5 be 1b 3f 29 3e ec 8b ba bd
       0.24398305 -0.38521436 0.16527979 -0.09108719
000370 19 e1 5d bd fa e6 f6 b9 6c 0c cd be 94 74 39 be
       -0.054169748 -0.00047092867 -0.4004854 -0.18110877
000380 db bb aa 3d 51 03 d7 3d d5 b5 a0 3d 24 ad 70 3e
       0.08336612 0.104986794 0.07847182 0.23503548
000390 b4 8b 66 bd 0b 36 06 3d 54 43 52 be ee 68 b0 bd
       -0.056285575 0.032766383 -0.20533496 -0.08613764
0003a0 19 2b 92 3e 96 c0 35 bd e1 cc 56 bd 89 d4 23 3e
       0.28548506 -0.044373117 -0.05244148 0.15999044
0003b0 d1 bd a6 bd 53 e3 26 be 3a b4 45 3e 80 d2 e8 3d
       -0.08141673 -0.16297655 0.19307032 0.11368275
0003c0 d0 5b a2 3e 57 a5 fa 3d 57 e2 31 be 2b 3b cf 3d
       0.31710672 0.12238567 -0.17371498 0.10118707
0003d0 0d 21 d6 bc 7c d2 ca 3e 28 fb 55 bd d2 eb ee 3d
       -0.026138807 0.39613712 -0.052241474 0.11666073
0003e0 58 ab 76 be 37 d6 35 bd c5 cc b2 3c ba 57 db 3e
       -0.240888 -0.044393744 0.021826157 0.42840368
0003f0 7b 99 f7 3c 09 61 b5 bd 56 70 3d be fb b4 ca be
       0.030224552 -0.088563986 -0.18499884 -0.39591202

bias f4 [30]
000000 a0 d4 ac 3d 91 81 f3 bc 31 b9 e0 3d b5 86 bd 3d
       0.084389925 -0.029724868 0.109728225 0.09254209
000010 c4 50 30 3e fb 29 d1 3b b8 15 ac ba 82 22 f6 bc
       0.1721831 0.0063831783 -0.0013129031 -0.030045751
000020 06 b3 9c 3d 0c 3d b0 bc de eb 11 3d 54 16 15 3b
       0.076513335 -0.021513484 0.03562533 0.0022748904
000030 0d 04 80 3d 71 32 9d 3d 69 f3 99 3e 74 96 d8 3d
       0.062507726 0.076756366 0.3006852 0.10575572
000040 b6 86 55 3e 54 d0 7c bd 06 7b 21 bd 41 d8 91 3c
       0.2085217 -0.061722115 -0.039423965 0.017803313
000050 09 9b 5b 3b 01 a6 f5 3d c7 79 a5 3c c7 3f 73 3d
       0.0033509156 0.11994553 0.02019967 0.059386995
000060 b4 1b cd bc 5b 8c ab 3d 00 7d 28 3e 57 50 77 3d
       -0.025037624 0.0837638 0.16453934 0.060379352
000070 6f d8 08 3e 26 a4 09 3e
       0.13363813 0.13441524

weight f4 [2, 30]
000000 40 6e 81 be ae f0 30 bf 0e 3d 12 3f cd f6 1c 3f
       -0.25279427 -0.6911725 0.5712441 0.6131409
000010 7f 9c de 3e 0a 97 8e be da 22 2e bf f5 17 03 bf
       0.43478772 -0.2784961 -0.6802193 -0.5120843
000020 21 ff 8c 3e b8 dd d1 3c d2 be cc be 21 44 a4 be
       0.27538398 0.025618419 -0.39989334 -0.32083228
000030 8e 87 00 3f d5 5f 1e 3f 4c 58 db 3e 54 2a f6 3e
       0.5020684 0.6186498 0.42840803 0.4807917
000040 61 ff e6 3e a0 b3 eb be cb 3f d5 be 5a f3 0f bf
       0.45116714 -0.4603548 -0.41650233 -0.562307
000050 ae f9 27 bf bc 21 fe 3e 4d e3 33 bf fb 7b 28 be
       -0.65615356 0.49635112 -0.7026871 -0.16453545
000060 e8 1e 8f be b9 69 bb 3e 52 a3 12 3f e7 0f 04 3f
       -0.27953267 0.36604097 0.5728046 0.51586765
000070 71 1f fd 3e 22 e5 e6 3e cb 5d 46 3f 2f cc f0 3e
       0.4943805 0.4509669 0.77486867 0.4703078
000080 7d df 63 be 76 9d 21 bf 03 5f 66 3d da 88 49 3f
       -0.22253223 -0.6313089 0.056242954 0.78724444
000090 68 ab 03 3f a3 ae 8f be 73 02 71 bf 20 42 54 bf
       0.5143342 -0.28062925 -0.9414436 -0.829134
0000a0 65 de 6e 3f ce 80 58 3f e2 5f 2d bf c5 d4 90 be
       0.933081 0.8457154 -0.6772443 -0.2828733
0000b0 71 5a e7 3e 49 64 21 bf 06 6e 83 3e b3 54 03 bf
       0.4518619 -0.6304365 0.2566988 -0.51301116
0000c0 25 29 e8 be 84 69 24 3f 9d 03 02 3f 9c 92 37 be
       -0.4534389 0.64223504 0.50786763 -0.17927021
0000d0 ea e8 b1 3e e7 83 52 3f 4c d5 33 bf 90 01 31 bf
       0.34748012 0.82232517 -0.7024734 -0.6914301
0000e0 15 ac 5e 3e 4d b2 0e bf 38 a8 a3 3a 79 aa 06 bd
       0.21745332 -0.55740815 0.0012486046 -0.03287742

bias f4 [2]
000000 e7 8f b3 3d f2 7a 10 3e
       0.087676816 0.141094
